…
taFrame(Tr_result_temp, columns=['Case', 'Kernel_S', \n","                                                          'Dense_N', 'Learn_R', 'Accuracy'])\n","Tr_result_temp_pd.to_csv(\"./[CNN_models]/Training_result.csv\", index=None)                \n"],"execution_count":35,"outputs":[{"output_type":"stream","name":"stdout","text":["Model: \"sequential_1\"\n","_________________________________________________________________\n"," Layer (type)                Output Shape              Param #   \n","=================================================================\n"," conv2d_3 (Conv2D)           (None, 28, 28, 4)         40        \n","                                                                 \n"," max_pooling2d_3 (MaxPooling  (None, 14, 14, 4)        0         \n"," 2D)                                                             \n","                                                                 \n"," conv2d_4 (Conv2D)           (None, 14, 14, 8)         296       \n","                                                                 \n"," max_pooling2d_4 (MaxPooling  (None, 7, 7, 8)          0         \n"," 2D)                                                             \n","                                                                 \n"," conv2d_5 (Conv2D)           (None, 7, 7, 16)          1168      \n","                                                                 \n"," max_pooling2d_5 (MaxPooling  (None, 4, 4, 16)         0         \n"," 2D)                                                             \n","                                                                 \n"," flatten_1 (Flatten)         (None, 256)               0         \n","                                                                 \n"," dense_2 (Dense)             (None, 12)                3084      \n","                                                                 \n"," dense_3 (Dense)             (None, 10)                130       \n","                                                                 \n","=================================================================\n","Total params: 4,718\n","Trainable params: 4,718\n","Non-trainable params: 0\n","_________________________________________________________________\n","\n","\n","[Grid search] case No.1\n","Kernel size of each conv. layer :  (3, 3)\n","Num of neurons
…
96% \n","[82 Epochs] Accuracy : 98.87% \n","[83 Epochs] Accuracy : 98.87% \n","[84 Epochs] Accuracy : 98.95% \n","[85 Epochs] Accuracy : 98.92% \n","[86 Epochs] Accuracy : 98.96% \n","\n","[Final Epochs] Accuracy : 97.48\n","time per epoch : 1.44 sec\n","\n","\n","#####################################################\n","\n","\n","Model: \"sequential_2\"\n","_________________________________________________________________\n"," Layer (type)                Output Shape              Param #   \n","=================================================================\n"," conv2d_6 (Conv2D)           (None, 28, 28, 4)         40        \n","                                                                 \n"," max_pooling2d_6 (MaxPooling  (None, 14, 14, 4)        0         \n"," 2D)                                                             \n","                                                                 \n"," conv2d_7 (Conv2D)           (None, 14, 14, 8)         296       \n","                                                                 \n"," max_pooling2d_7 (MaxPooling  (None, 7, 7, 8)          0         \n"," 2D)                                                             \n","                                                                 \n"," conv2d_8 (Conv2D)           (None, 7, 7, 16)          1168      \n","                                                                 \n"," max_pooling2d_8 (MaxPooling  (None, 4, 4, 16)         0         \n"," 2D)                                                             \n","                                                                 \n"," flatten_2 (Flatten)         (None, 256)               0         \n","                                                                 \n"," dense_4 (Dense)             (None, 18)                4626      \n","                                                                 \n"," dense_5 (Dense)             (None, 10)                190       \n","                                                                 \n","=================================================================\n","Total params: 6,320\n","Trainable params: 6,320\n","Non-trainable params: 0\n","_________________________________________________________________\n","\n","\n","[Grid search] case No.2\n","Kernel size of each conv. layer :  (3, 3)\n","Num of neurons
…
20% \n","[61 Epochs] Accuracy : 99.08% \n","[62 Epochs] Accuracy : 99.13% \n","[63 Epochs] Accuracy : 99.20% \n","[64 Epochs] Accuracy : 99.19% \n","[65 Epochs] Accuracy : 99.20% \n","\n","[Final Epochs] Accuracy : 98.22\n","time per epoch : 1.11 sec\n","\n","\n","#####################################################\n","\n","\n","Model: \"sequential_3\"\n","_________________________________________________________________\n"," Layer (type)                Output Shape              Param #   \n","=================================================================\n"," conv2d_9 (Conv2D)           (None, 28, 28, 4)         40        \n","                                                                 \n"," max_pooling2d_9 (MaxPooling  (None, 14, 14, 4)        0         \n"," 2D)                                                             \n","                                                                 \n"," conv2d_10 (Conv2D)          (None, 14, 14, 8)         296       \n","                                                                 \n"," max_pooling2d_10 (MaxPoolin  (None, 7, 7, 8)          0         \n"," g2D)                                                            \n","                                                                 \n"," conv2d_11 (Conv2D)          (None, 7, 7, 16)          1168      \n","                                                                 \n"," max_pooling2d_11 (MaxPoolin  (None, 4, 4, 16)         0         \n"," g2D)                                                            \n","                                                                 \n"," flatten_3 (Flatten)         (None, 256)               0         \n","                                                                 \n"," dense_6 (Dense)             (None, 21)                5397      \n","                                                                 \n"," dense_7 (Dense)             (None, 10)                220       \n","                                                                 \n","=================================================================\n","Total params: 7,121\n","Trainable params: 7,121\n","Non-trainable params: 0\n","_________________________________________________________________\n","\n","\n","[Grid search] case No.3\n","Kernel size of each conv. layer :  (3, 3)\n","Num of neurons
…
95% \n","[31 Epochs] Accuracy : 98.86% \n","[32 Epochs] Accuracy : 98.87% \n","[33 Epochs] Accuracy : 98.93% \n","[34 Epochs] Accuracy : 98.94% \n","[35 Epochs] Accuracy : 98.91% \n","\n","[Final Epochs] Accuracy : 97.92\n","time per epoch : 0.61 sec\n","\n","\n","#####################################################\n","\n","\n","Model: \"sequential_4\"\n","_________________________________________________________________\n"," Layer (type)                Output Shape              Param #   \n","=================================================================\n"," conv2d_12 (Conv2D)          (None, 28, 28, 4)         40        \n","                                                                 \n"," max_pooling2d_12 (MaxPoolin  (None, 14, 14, 4)        0         \n"," g2D)                                                            \n","                                                                 \n"," conv2d_13 (Conv2D)          (None, 14, 14, 8)         296       \n","                                                                 \n"," max_pooling2d_13 (MaxPoolin  (None, 7, 7, 8)          0         \n"," g2D)                                                            \n","                                                                 \n"," conv2d_14 (Conv2D)          (None, 7, 7, 16)          1168      \n","                                                                 \n"," max_pooling2d_14 (MaxPoolin  (None, 4, 4, 16)         0         \n"," g2D)                                                            \n","                                                                 \n"," flatten_4 (Flatten)         (None, 256)               0         \n","                                                                 \n"," dense_8 (Dense)             (None, 24)                6168      \n","                                                                 \n"," dense_9 (Dense)             (None, 10)                250       \n","                                                                 \n","=================================================================\n","Total params: 7,922\n","Trainable params: 7,922\n","Non-trainable params: 0\n","_________________________________________________________________\n","\n","\n","[Grid search] case No.4\n","Kernel size of each conv. layer :  (3, 3)\n","Num of neurons
…
43% \n","[50 Epochs] Accuracy : 99.26% \n","[51 Epochs] Accuracy : 99.37% \n","[52 Epochs] Accuracy : 99.32% \n","[53 Epochs] Accuracy : 99.23% \n","[54 Epochs] Accuracy : 99.27% \n","\n","[Final Epochs] Accuracy : 98.25\n","time per epoch : 0.98 sec\n","\n","\n","#####################################################\n","\n","\n","Model: \"sequential_5\"\n","_________________________________________________________________\n"," Layer (type)                Output Shape              Param #   \n","=================================================================\n"," conv2d_15 (Conv2D)          (None, 28, 28, 4)         68        \n","                                                                 \n"," max_pooling2d_15 (MaxPoolin  (None, 14, 14, 4)        0         \n"," g2D)                                                            \n","                                                                 \n"," conv2d_16 (Conv2D)          (None, 14, 14, 8)         520       \n","                                                                 \n"," max_pooling2d_16 (MaxPoolin  (None, 7, 7, 8)          0         \n"," g2D)                                                            \n","                                                                 \n"," conv2d_17 (Conv2D)          (None, 7, 7, 16)          2064      \n","                                                                 \n"," max_pooling2d_17 (MaxPoolin  (None, 4, 4, 16)         0         \n"," g2D)                                                            \n","                                                                 \n"," flatten_5 (Flatten)         (None, 256)               0         \n","                                                                 \n"," dense_10 (Dense)            (None, 12)                3084      \n","                                                                 \n"," dense_11 (Dense)            (None, 10)                130       \n","                                                                 \n","=================================================================\n","Total params: 5,866\n","Trainable params: 5,866\n","Non-trainable params: 0\n","_________________________________________________________________\n","\n","\n","[Grid search] case No.5\n","Kernel size of each conv. layer :  (4, 4)\n","Num of neurons
…
59% \n","[71 Epochs] Accuracy : 99.55% \n","[72 Epochs] Accuracy : 99.52% \n","[73 Epochs] Accuracy : 99.49% \n","[74 Epochs] Accuracy : 99.42% \n","[75 Epochs] Accuracy : 99.59% \n","\n","[Final Epochs] Accuracy : 97.94\n","time per epoch : 1.64 sec\n","\n","\n","#####################################################\n","\n","\n","Model: \"sequential_6\"\n","_________________________________________________________________\n"," Layer (type)                Output Shape              Param #   \n","=================================================================\n"," conv2d_18 (Conv2D)          (None, 28, 28, 4)         68        \n","                                                                 \n"," max_pooling2d_18 (MaxPoolin  (None, 14, 14, 4)        0         \n"," g2D)                                                            \n","                                                                 \n"," conv2d_19 (Conv2D)          (None, 14, 14, 8)         520       \n","                                                                 \n"," max_pooling2d_19 (MaxPoolin  (None, 7, 7, 8)          0         \n"," g2D)                                                            \n","                                                                 \n"," conv2d_20 (Conv2D)          (None, 7, 7, 16)          2064      \n","                                                                 \n"," max_pooling2d_20 (MaxPoolin  (None, 4, 4, 16)         0         \n"," g2D)                                                            \n","                                                                 \n"," flatten_6 (Flatten)         (None, 256)               0         \n","                                                                 \n"," dense_12 (Dense)            (None, 18)                4626      \n","                                                                 \n"," dense_13 (Dense)            (None, 10)                190       \n","                                                                 \n","=================================================================\n","Total params: 7,468\n","Trainable params: 7,468\n","Non-trainable params: 0\n","_________________________________________________________________\n","\n","\n","[Grid search] case No.6\n","Kernel size of each conv. layer :  (4, 4)\n","Num of neurons
…
61% \n","[46 Epochs] Accuracy : 99.57% \n","[47 Epochs] Accuracy : 99.47% \n","[48 Epochs] Accuracy : 99.48% \n","[49 Epochs] Accuracy : 99.50% \n","[50 Epochs] Accuracy : 99.55% \n","\n","[Final Epochs] Accuracy : 98.38\n","time per epoch : 1.37 sec\n","\n","\n","#####################################################\n","\n","\n","Model: \"sequential_7\"\n","_________________________________________________________________\n"," Layer (type)                Output Shape              Param #   \n","=================================================================\n"," conv2d_21 (Conv2D)          (None, 28, 28, 4)         68        \n","                                                                 \n"," max_pooling2d_21 (MaxPoolin  (None, 14, 14, 4)        0         \n"," g2D)                                                            \n","                                                                 \n"," conv2d_22 (Conv2D)          (None, 14, 14, 8)         520       \n","                                                                 \n"," max_pooling2d_22 (MaxPoolin  (None, 7, 7, 8)          0         \n"," g2D)                                                            \n","                                                                 \n"," conv2d_23 (Conv2D)          (None, 7, 7, 16)          2064      \n","                                                                 \n"," max_pooling2d_23 (MaxPoolin  (None, 4, 4, 16)         0         \n"," g2D)                                                            \n","                                                                 \n"," flatten_7 (Flatten)         (None, 256)               0         \n","                                                                 \n"," dense_14 (Dense)            (None, 21)                5397      \n","                                                                 \n"," dense_15 (Dense)            (None, 10)                220       \n","                                                                 \n","=================================================================\n","Total params: 8,269\n","Trainable params: 8,269\n","Non-trainable params: 0\n","_________________________________________________________________\n","\n","\n","[Grid search] case No.7\n","Kernel size of each conv. layer :  (4, 4)\n","Num of neurons
…
64% \n","[41 Epochs] Accuracy : 99.52% \n","[42 Epochs] Accuracy : 99.49% \n","[43 Epochs] Accuracy : 99.44% \n","[44 Epochs] Accuracy : 99.55% \n","[45 Epochs] Accuracy : 99.65% \n","\n","[Final Epochs] Accuracy : 98.37\n","time per epoch : 1.18 sec\n","\n","\n","#####################################################\n","\n","\n","Model: \"sequential_8\"\n","_________________________________________________________________\n"," Layer (type)                Output Shape              Param #   \n","=================================================================\n"," conv2d_24 (Conv2D)          (None, 28, 28, 4)         68        \n","                                                                 \n"," max_pooling2d_24 (MaxPoolin  (None, 14, 14, 4)        0         \n"," g2D)                                                            \n","                                                                 \n"," conv2d_25 (Conv2D)          (None, 14, 14, 8)         520       \n","                                                                 \n"," max_pooling2d_25 (MaxPoolin  (None, 7, 7, 8)          0         \n"," g2D)                                                            \n","                                                                 \n"," conv2d_26 (Conv2D)          (None, 7, 7, 16)          2064      \n","                                                                 \n"," max_pooling2d_26 (MaxPoolin  (None, 4, 4, 16)         0         \n"," g2D)                                                            \n","                                                                 \n"," flatten_8 (Flatten)         (None, 256)               0         \n","                                                                 \n"," dense_16 (Dense)            (None, 24)                6168      \n","                                                                 \n"," dense_17 (Dense)            (None, 10)                250       \n","                                                                 \n","=================================================================\n","Total params: 9,070\n","Trainable params: 9,070\n","Non-trainable params: 0\n","_________________________________________________________________\n","\n","\n","[Grid search] case No.8\n","Kernel size of each conv. layer :  (4, 4)\n","Num of neurons
…
59% \n","[58 Epochs] Accuracy : 99.49% \n","[59 Epochs] Accuracy : 99.53% \n","[60 Epochs] Accuracy : 99.48% \n","[61 Epochs] Accuracy : 99.53% \n","[62 Epochs] Accuracy : 99.54% \n","\n","[Final Epochs] Accuracy : 98.25\n","time per epoch : 1.43 sec\n","\n","\n","#####################################################\n","\n","\n","Model: \"sequential_9\"\n","_________________________________________________________________\n"," Layer (type)                Output Shape              Param #   \n","=================================================================\n"," conv2d_27 (Conv2D)          (None, 28, 28, 4)         104       \n","                                                                 \n"," max_pooling2d_27 (MaxPoolin  (None, 14, 14, 4)        0         \n"," g2D)                                                            \n","                                                                 \n"," conv2d_28 (Conv2D)          (None, 14, 14, 8)         808       \n","                                                                 \n"," max_pooling2d_28 (MaxPoolin  (None, 7, 7, 8)          0         \n"," g2D)                                                            \n","                                                                 \n"," conv2d_29 (Conv2D)          (None, 7, 7, 16)          3216      \n","                                                                 \n"," max_pooling2d_29 (MaxPoolin  (None, 4, 4, 16)         0         \n"," g2D)                                                            \n","                                                                 \n"," flatten_9 (Flatten)         (None, 256)               0         \n","                                                                 \n"," dense_18 (Dense)            (None, 12)                3084      \n","                                                                 \n"," dense_19 (Dense)            (None, 10)                130       \n","                                                                 \n","=================================================================\n","Total params: 7,342\n","Trainable params: 7,342\n","Non-trainable params: 0\n","_________________________________________________________________\n","\n","\n","[Grid search] case No.9\n","Kernel size of each conv. layer :  (5, 5)\n","Num of neurons
…
1% \n","[48 Epochs] Accuracy : 99.43% \n","[49 Epochs] Accuracy : 99.52% \n","[50 Epochs] Accuracy : 99.52% \n","[51 Epochs] Accuracy : 99.39% \n","[52 Epochs] Accuracy : 99.57% \n","\n","[Final Epochs] Accuracy : 98.32\n","time per epoch : 1.62 sec\n","\n","\n","#####################################################\n","\n","\n","Model: \"sequential_10\"\n","_________________________________________________________________\n"," Layer (type)                Output Shape              Param #   \n","=================================================================\n"," conv2d_30 (Conv2D)          (None, 28, 28, 4)         104       \n","                                                                 \n"," max_pooling2d_30 (MaxPoolin  (None, 14, 14, 4)        0         \n"," g2D)                                                            \n","                                                                 \n"," conv2d_31 (Conv2D)          (None, 14, 14, 8)         808       \n","                                                                 \n"," max_pooling2d_31 (MaxPoolin  (None, 7, 7, 8)          0         \n"," g2D)                                                            \n","                                                                 \n"," conv2d_32 (Conv2D)          (None, 7, 7, 16)          3216      \n","                                                                 \n"," max_pooling2d_32 (MaxPoolin  (None, 4, 4, 16)         0         \n"," g2D)                                                            \n","                                                                 \n"," flatten_10 (Flatten)        (None, 256)               0         \n","                                                                 \n"," dense_20 (Dense)            (None, 18)                4626      \n","                                                                 \n"," dense_21 (Dense)            (None, 10)                190       \n","                                                                 \n","=================================================================\n","Total params: 8,944\n","Trainable params: 8,944\n","Non-trainable params: 0\n","_________________________________________________________________\n","\n","\n","[Grid search] case No.10\n","Kernel size of each conv. layer :  (5, 5)\n","Num of neuron
…
3% \n","[31 Epochs] Accuracy : 99.50% \n","[32 Epochs] Accuracy : 99.46% \n","[33 Epochs] Accuracy : 99.41% \n","[34 Epochs] Accuracy : 99.48% \n","[35 Epochs] Accuracy : 99.54% \n","\n","[Final Epochs] Accuracy : 98.53\n","time per epoch : 1.08 sec\n","\n","\n","#####################################################\n","\n","\n","Model: \"sequential_11\"\n","_________________________________________________________________\n"," Layer (type)                Output Shape              Param #   \n","=================================================================\n"," conv2d_33 (Conv2D)          (None, 28, 28, 4)         104       \n","                                                                 \n"," max_pooling2d_33 (MaxPoolin  (None, 14, 14, 4)        0         \n"," g2D)                                                            \n","                                                                 \n"," conv2d_34 (Conv2D)          (None, 14, 14, 8)         808       \n","                                                                 \n"," max_pooling2d_34 (MaxPoolin  (None, 7, 7, 8)          0         \n"," g2D)                                                            \n","                                                                 \n"," conv2d_35 (Conv2D)          (None, 7, 7, 16)          3216      \n","                                                                 \n"," max_pooling2d_35 (MaxPoolin  (None, 4, 4, 16)         0         \n"," g2D)                                                            \n","                                                                 \n"," flatten_11 (Flatten)        (None, 256)               0         \n","                                                                 \n"," dense_22 (Dense)            (None, 21)                5397      \n","                                                                 \n"," dense_23 (Dense)            (None, 10)                220       \n","                                                                 \n","=================================================================\n","Total params: 9,745\n","Trainable params: 9,745\n","Non-trainable params: 0\n","_________________________________________________________________\n","\n","\n","[Grid search] case No.11\n","Kernel size of each conv. layer :  (5, 5)\n","Num of neuron
…
0% \n","[29 Epochs] Accuracy : 99.30% \n","[30 Epochs] Accuracy : 99.29% \n","[31 Epochs] Accuracy : 99.38% \n","[32 Epochs] Accuracy : 99.41% \n","[33 Epochs] Accuracy : 99.49% \n","\n","[Final Epochs] Accuracy : 98.30\n","time per epoch : 1.05 sec\n","\n","\n","#####################################################\n","\n","\n","Model: \"sequential_12\"\n","_________________________________________________________________\n"," Layer (type)                Output Shape              Param #   \n","=================================================================\n"," conv2d_36 (Conv2D)          (None, 28, 28, 4)         104       \n","                                                                 \n"," max_pooling2d_36 (MaxPoolin  (None, 14, 14, 4)        0         \n"," g2D)                                                            \n","                                                                 \n"," conv2d_37 (Conv2D)          (None, 14, 14, 8)         808       \n","                                                                 \n"," max_pooling2d_37 (MaxPoolin  (None, 7, 7, 8)          0         \n"," g2D)                                                            \n","                                                                 \n"," conv2d_38 (Conv2D)          (None, 7, 7, 16)          3216      \n","                                                                 \n"," max_pooling2d_38 (MaxPoolin  (None, 4, 4, 16)         0         \n"," g2D)                                                            \n","                                                                 \n"," flatten_12 (Flatten)        (None, 256)               0         \n","                                                                 \n"," dense_24 (Dense)            (None, 24)                6168      \n","                                                                 \n"," dense_25 (Dense)            (None, 10)                250       \n","                                                                 \n","=================================================================\n","Total params: 10,546\n","Trainable params: 10,546\n","Non-trainable params: 0\n","_________________________________________________________________\n","\n","\n","[Grid search] case No.12\n","Kernel size of each conv. layer :  (5, 5)\n","Num of neur
…
